cifar_net.pth (torch, 251604 bytes, 10 tensors)

conv1.weight f4 [6, 3, 5, 5]
0	0x403a06d1	2.906666
1	0xbef2129a	-0.47279817
2	0x3e4a9906	0.19784936
3	0x3fbeb6e8	1.4899569
4	0x3fd848be	1.6897199
5	0x40359686	2.8373122
6	0xbe9576f9	-0.2919233
7	0xbf24a3d1	-0.64312464
8	0x3fd1f44d	1.640268
9	0x4008328d	2.1280854
10	0x3ef24d66	0.47324675
11	0xbeb4ee23	-0.35337934
12	0xbe8ee3bc	-0.27908123
13	0xbe810d86	-0.2520563
14	0xbdff6b5c	-0.12471649
15	0xbe50c560	-0.20387793
16	0x3f69d320	0.91337776
17	0x3f2e7ab0	0.68155956
18	0xbf28c638	-0.6592746
19	0xbf847cb6	-1.0350559
20	0x3f069430	0.52569866
21	0x3f54f888	0.8319173
22	0x3ecb8100	0.39746857
23	0xbd4feaef	-0.05076116
24	0xbf88c115	-1.0683924
25	0x3e4eaa58	0.20182168
26	0xc00d28fd	-2.2056267
27	0xbf9b264c	-1.2121062
28	0x3f0e5367	0.5559601
29	0x3f4eb4f0	0.8074484
30	0x3ff97de0	1.9491539
31	0xbe0bbe97	-0.13646923
32	0xbe548665	-0.20754392
33	0x4003ed50	2.0613594
34	0x4039aed4	2.9012957
35	0x3f349dce	0.7055329
36	0x3f2c4aba	0.67301524
37	0x3f9d375b	1.2282518
38	0x3fab4af6	1.3382251
39	0x3fe9ab06	1.8255317
40	0x3f64f7eb	0.8944079
41	0x400bac07	2.1823747
42	0x40236731	2.5531733
43	0x3feac614	1.8341699
44	0x3fed0e8d	1.8520066
45	0x4002bcc0	2.0427704
46	0x40196b54	2.3971758
47	0x4007b1d0	2.1202278
48	0x401f3901	2.4878542
49	0x4016c300	2.3556519
50	0xc09917ab	-4.784139
51	0xc0da5c30	-6.8237534
52	0xc0bb62f9	-5.8558316
53	0xc07e8b6c	-3.9772596
54	0xc07adba9	-3.919657
55	0xc01cf3de	-2.4523845
56	0xc08a5eb7	-4.324062
57	0xc09ab127	-4.834125
58	0xc027c78f	-2.621555
59	0xbfee9024	-1.8637738
60	0xc06844a8	-3.6291904
61	0xc0656d8f	-3.584812
62	0xc06e2aa0	-3.7213516
63	0xc07698ee	-3.853084
64	0xc056e791	-3.3578837
65	0xc07b8f12	-3.9306073
66	0xc0295b90	-2.6462135
67	0xc02f82dc	-2.742362
68	0xc072ae6f	-3.7918966
69	0xc0868959	-4.204266
70	0xc04d6a7b	-3.209624
71	0xc033ee2e	-2.8114123
72	0xc0470d34	-3.1101809
73	0xc05d28c4	-3.4556131
74	0xc086c055	-4.210978
75	0xbe60398a	-0.2189695
76	0xbf72ca17	-0.94839615
77	0x3ef519c0	0.47871208
78	0xbfbec2bf	-1.4903182
79	0x3f91c669	1.1388675
80	0x3ee78339	0.45217302
81	0xbf51e131	-0.8198424
82	0x3fbf674e	1.4953401
83	0xbf7cda1f	-0.98770326
84	0x3f851a39	1.0398628
85	0x40328697	2.7894647
86	0x402a9ee6	2.6659484
87	0x4086ea83	4.216127
88	0x4010c7ab	2.2621868
89	0x408a323a	4.318631
90	0xc0065b21	-2.099312
91	0xc05e1914	-3.4702806
92	0xc013be6d	-2.3084977
93	0xc058eb10	-3.389347
94	0xbfeddf15	-1.8583704
95	0xc02233e5	-2.5344174
96	0xc04d3af0	-3.2067223
97	0xbe81e205	-0.25367752
98	0xbfa490c9	-1.2856685
99	0xc015b9cc	-2.3394651
100	0xbfc447ee	-1.5334451
101	0xc0122b50	-2.2838936
102	0xbeaa0df7	-0.3321378
103	0xc0215dba	-2.5213456
104	0xbf2a5bef	-0.6654653
105	0xbf4e9595	-0.80696994
106	0xbffc9222	-1.9732096
107	0x3f06c865	0.5264953
108	0xbff88824	-1.9416547
109	0xbe9b24d6	-0.3030154
110	0x402c8cd2	2.696095
111	0x4019b323	2.4015586
112	0x4065187e	3.57962
113	0x3fec8254	1.8477273
114	0x40590dca	3.3914666
115	0xbec06535	-0.37577215
116	0xbffe61a6	-1.987355
117	0xbfb7709a	-1.4331238
118	0xc0238f72	-2.5556302
119	0xbfaa4e21	-1.3305093
120	0xbf35de0e	-0.71041954
121	0xbfbbe9a3	-1.4680675
122	0x3f93cc63	1.1546749
123	0xbeb2c5ae	-0.34916443
124	0xbfdf084d	-1.7424408
125	0xc02ddbb5	-2.7165349
126	0xc071f081	-3.7803042
127	0xbfa40fb9	-1.2817298
128	0xc05322ea	-3.299006
129	0xc00669d7	-2.10021
130	0xbfecc213	-1.8496727
131	0xc04687bd	-3.1020348
132	0xbeb74b59	-0.35799673
133	0xc028712f	-2.6319082
134	0xbf9536d1	-1.1657354
135	0x401b4d63	2.4265983
136	0x3ff1159c	1.883472
137	0x40559337	3.3371103
138	0x3ffc4471	1.9708387
139	0x406c1810	3.6889687
140	0x3f6054a0	0.8762913
141	0xbfa7248a	-1.3058026
142	0xbf5911f9	-0.8479305
143	0xbfa5dedf	-1.295864
144	0x3c5cae39	0.013469272
145	0x3ebe0326	0.37111777
146	0xbf40b8ba	-0.7528187
147	0x3fd18fc6	1.6372001
148	0x3e327b92	0.17429951
149	0xbf62287b	-0.8834302
150	0x3f7015bd	0.9378317
151	0x3fabd58a	1.3424542
152	0x3f66eef5	0.9020837
153	0x3f6c9f6c	0.9243076
154	0x3f750105	0.9570468
155	0x40012e64	2.0184565
156	0x400eba61	2.2301257
157	0x4002a519	2.0413268
158	0x40005883	2.0054023
159	0x3fe35ff0	1.7763653
160	0x3fe61da6	1.7977798
161	0x3ffeefd0	1.9916935
162	0x3fe7cb7c	1.8108974
163	0x4000c612	2.0120893
164	0x3ff73e5e	1.9315908
165	0x3f3643d6	0.7119726
166	0x3f2291c2	0.6350366
167	0x3f28f876	0.6600412
168	0x3f504569	0.8135591
169	0x3fabed8e	1.3431871
170	0xbdc0db50	-0.094168305
171	0x3e2ee420	0.1707921
172	0xbc719623	-0.014745268
173	0x3d88889d	0.06666682
174	0x3f8e8ae4	1.1136136
175	0xbfdf2c07	-1.7435311
176	0xbf81a49e	-1.0128362
177	0xbf7fdce1	-0.9994641
178	0xbfd32da9	-1.6498309
179	0xbfb2c705	-1.3966986
180	0xc01e9261	-2.4776843
181	0xbffd0dc6	-1.9769828
182	0xbff8e069	-1.9443485
183	0xc006e6de	-2.107841
184	0xc01a6b0b	-2.4127834
185	0xbf6eb168	-0.9323945
186	0xbf40ade3	-0.7526533
187	0xbf77d517	-0.96809524
188	0xbf7e6a93	-0.9938137
189	0xbf3fe73b	-0.74962205
190	0xbf2f3f95	-0.68456393
191	0xbfa3a115	-1.2783533
192	0xbfa51251	-1.2896215
193	0xbfa97c1e	-1.3241003
194	0xbf420c17	-0.757997
195	0xbf935a26	-1.1511886
196	0xbfbc8c06	-1.4730232
197	0xbfe7b64c	-1.8102508
198	0xc00e338a	-2.2218957
199	0xbfd1549b	-1.6353945
200	0xbec2ad8c	-0.3802303
201	0x3e9f4734	0.3110901
202	0x3db76371	0.08954514
203	0xbf1daf44	-0.6159556
204	0xbebf0680	-0.37309647
205	0xbfa3dfeb	-1.2802709
206	0xbf1e67d8	-0.61877203
207	0xbf0f3171	-0.55934817
208	0xbf1e2fc4	-0.61791635
209	0xbf69548b	-0.9114463
210	0x3d8d610c	0.06903276
211	0x3efd1f6c	0.49438035
212	0x3ed2747d	0.41104499
213	0x3ee7a482	0.45242697
214	0x3f5a639d	0.8530825
215	0x3f3a4f3f	0.7277717
216	0x3df11718	0.11771983
217	0x3dca3225	0.098728456
218	0x3e9cb6df	0.3060827
219	0x3f8a1911	1.07889
220	0x3eed927d	0.46400824
221	0x3eaf11dc	0.34193313
222	0x3cf5c459	0.030000852
223	0xbbc48495	-0.0059972503
224	0x3f32aea5	0.69797736
225	0xbfe4297b	-1.7825159
226	0xbf8f0da0	-1.1176033
227	0xbf7dde52	-0.9916736
228	0xbf323350	-0.69609547
229	0xbfcfadb8	-1.622489
230	0xbed86a78	-0.4226873
231	0x3ed2813e	0.4111423
232	0x3f60bc37	0.87787193
233	0x3ef05bac	0.4694494
234	0xbf3b5d77	-0.7318949
235	0x3da1e45c	0.07904884
236	0xbd47d98c	-0.048791453
237	0xbf04e77b	-0.5191571
238	0xbf4bfc21	-0.79681593
239	0xbf18a340	-0.596241
240	0xbe24021a	-0.16016427
241	0xbf2d7e80	-0.6777115
242	0xbf89885c	-1.0744739
243	0xbfaca845	-1.3488852
244	0xbee35e15	-0.44407716
245	0x3fa69e28	1.3017015
246	0x3f48d4dc	0.784498
247	0x3f92e217	1.1475247
248	0x3eb55d2d	0.3542265
249	0x3dd50140	0.10400629
250	0xbf51a3bf	-0.8189048
251	0xbd5329bc	-0.051553473
252	0x3e003b2b	0.12522571
253	0x3e4dbdc2	0.20091918
254	0xbf5e3946	-0.8680614
255	0x3ea7c641	0.32768443

conv1.bias f4 [6]
0	0xc0d029c3	-6.505098
1	0xc180210e	-16.01614
2	0xc16df7f9	-14.87304
3	0xc1072a76	-8.447866
4	0xc112efc1	-9.183534
5	0xc1046e76	-8.276968

conv2.weight f4 [16, 6, 5, 5]
0	0xbf4e76f4	-0.8065026
1	0xbfcf3748	-1.6188745
2	0xbf1b73e6	-0.6072372
3	0xbfa9cf9b	-1.3266481
4	0xbf6db61b	-0.92855996
5	0xbdea6b73	-0.114462756
6	0x3eb20a93	0.34773692
7	0xbf2c5aab	-0.6732585
8	0xbe7fe5b9	-0.24989976
9	0x3e4f6d22	0.20256475
10	0xbfdf949d	-1.7467228
11	0xbefb1da6	-0.49046057
12	0xbfa57afa	-1.2928154
13	0xbfea2fae	-1.8295801
14	0xbfd5ad80	-1.6693573
15	0xbfce024e	-1.6094453
16	0xbfe05c26	-1.7528121
17	0xbff5794e	-1.9177644
18	0xbf7289b6	-0.9474138
19	0xbf926ab2	-1.1438811
20	0xc02773af	-2.6164358
21	0xbfd58956	-1.6682537
22	0xc0000012	-2.0000043
23	0xbfb34e08	-1.4008188
24	0xbfd7985a	-1.6843369
25	0x3e979365	0.2960464
26	0x3f3b27c8	0.73107576
27	0x3f4d11d3	0.8010532
28	0xbdc1a2ad	-0.09454856
29	0xbe80f022	-0.25183207
30	0x3fd24016	1.6425807
31	0x3f86dffa	1.0537102
32	0x3ec7892f	0.3897185
33	0x3df9f942	0.12205745
34	0xbe31c6e2	-0.17361024
35	0xbfb318ce	-1.3991945
36	0xbf527b8a	-0.82219756
37	0x3ead3285	0.33827606
38	0x3f37fa4c	0.718663
39	0x3ecfa8b6	0.40558404
40	0x3f6ff29a	0.93729556
41	0xbf35b882	-0.7098466
42	0xbf00db79	-0.5033489
43	0xbf05510c	-0.5207679
44	0xbe24ecec	-0.16106004
45	0xbec3a6c6	-0.38213176
46	0xbf0d880c	-0.55285716
47	0xbeea9828	-0.4581921
48	0xbf2965eb	-0.6617114
49	0xbf5a7f0f	-0.85350126
50	0x3f0f11b1	0.5588637
51	0x3d4647fa	0.048408486
52	0x3e962eec	0.29332674
53	0xbec4a12b	-0.3840421
54	0xbed546b0	-0.41655493
55	0xbf1c3e43	-0.61032504
56	0xbf3bafb4	-0.73314977
57	0xbf8e3745	-1.1110617
58	0xbf961e3a	-1.1727974
59	0xbf541c7d	-0.8285597
60	0xbfac27f3	-1.3449692
61	0xbf952f80	-1.1655121
62	0xbfb0c253	-1.3809303
63	0xbfd82b45	-1.6888205
64	0xbf9e81f6	-1.2383411
65	0xbe1204d4	-0.14259654
66	0xbf7352d0	-0.95048237
67	0xbf6c4d04	-0.92305017
68	0xbfc8667d	-1.5656277
69	0xbfb2164d	-1.3913056
70	0x4089a06e	4.3008337
71	0x4097c0e3	4.7422957
72	0x40813c20	4.0385895
73	0x4018ff3d	2.3905785
74	0x3fc5d79e	1.5456426
75	0xbefdea17	-0.4959266
76	0xbed81423	-0.42202863
77	0xbf23216e	-0.63722885
78	0xbf5b87d8	-0.85754156
79	0xbf146fb2	-0.57982934
80	0x3ed8471f	0.4224176
81	0xbe759690	-0.23983216
82	0xbf44f0be	-0.76929843
83	0xbf1ef4a1	-0.62092024
84	0xbe1c543d	-0.1526651
85	0xbebbc87e	-0.366764
86	0x3e21f156	0.15814719
87	0x3ea1fbc4	0.31637394
88	0x3e82a850	0.25519037
89	0xbd50613d	-0.050873984
90	0xbe99b758	-0.30022693
91	0xbf25f87d	-0.6483229
92	0x3e712531	0.23549344
93	0x3e082fb6	0.1329945
94	0xbe241418	-0.1602329
95	0x3cacce34	0.021094419
96	0xbef06a98	-0.46956325
97	0xbf13003d	-0.5742224
98	0xbde1d8f6	-0.1102771
99	0xbea3356e	-0.318767
100	0xbda18e87	-0.07888513
101	0xbe09638e	-0.13416883
102	0x3d536b14	0.05161579
103	0xbe90984c	-0.28241193
104	0x3c5e6f66	0.013576364
105	0xbe54ef47	-0.20794402
106	0xbe902f32	-0.28161007
107	0xbec4efdf	-0.38464257
108	0x3ce91c08	0.02845575
109	0x3d586bea	0.05283729
110	0xbe8a2088	-0.26977944
111	0xbe9cedf1	-0.30650285
112	0xbed859e9	-0.42256096
113	0xbd7a3a86	-0.06109097
114	0x3e6c7b4d	0.2309391
115	0xbf247d9c	-0.64254165
116	0xbdbb1a5a	-0.091358855
117	0xbd62fd6e	-0.05541747
118	0xbebda30d	-0.3703846
119	0xbf08618e	-0.53273857
120	0x3f4e7bd1	0.8065768
121	0x3f71d190	0.9446039
122	0x3ea79a82	0.32735068
123	0x3f36e75f	0.71446794
124	0x3f36f0f6	0.7146143
125	0xbe4a3ec4	-0.19750506
126	0xbf0f6409	-0.56012017
127	0x3e4a5278	0.19758022
128	0xbe7eb6fe	-0.24874493
129	0x3f18ad29	0.5963922
130	0xbf5097da	-0.8148171
131	0xbe4ab694	-0.1979621
132	0xbe9f6538	-0.3113191
133	0xbec452f5	-0.3834454
134	0xbf5612b4	-0.8362229
135	0xbf4c33e1	-0.7976666
136	0xbf113be4	-0.5673201
137	0xbf481862	-0.78162205
138	0xbea49e7b	-0.3215216
139	0xbf15d66b	-0.585303
140	0xbf3a0844	-0.7266886
141	0xbf2c9090	-0.67408085
142	0xbf1b5323	-0.6067373
143	0xbf220257	-0.6328482
144	0xbfa1ea1b	-1.2649568
145	0x3de0bbe1	0.10973335
146	0xbf3ee8ad	-0.74573785
147	0xbe88ecf9	-0.26743296
148	0xbf978421	-1.1837198
149	0xbea438e1	-0.32074645
150	0xbf999aba	-1.2000344
151	0xbf6d383a	-0.9266392
152	0xbea5d963	-0.32392415
153	0xbf199e4b	-0.6000716
154	0xbf81d0fe	-1.0141904
155	0xbfe2eafa	-1.7727959
156	0xbee98eb1	-0.45616677
157	0xbe185b3a	-0.1487855
158	0xbfa2ba14	-1.2713037
159	0xbfa50490	-1.2892017
160	0xbebc1cb4	-0.3674065
161	0xbecbd1f0	-0.39808607
162	0x3dafd104	0.085847884
163	0xbf1a2410	-0.60211277
164	0xbf3abc38	-0.7294345
165	0xbf819c40	-1.0125809
166	0xbf4e2d99	-0.80538327
167	0xbfa0c08a	-1.2558758
168	0xbf4957d8	-0.78649664
169	0xbf933bdf	-1.1502646
170	0xbf845cfd	-1.0340878
171	0xbfdde6c8	-1.7336054
172	0xbfab1951	-1.3367101
173	0xbee9a942	-0.45636946
174	0xbfd864ac	-1.6905723
175	0xbe4b0701	-0.1982689
176	0xbd309af1	-0.043116514
177	0x3f12d4b9	0.5735584
178	0xbd59864e	-0.0531066
179	0x3f600457	0.8750662
180	0xbfadb556	-1.3570964
181	0xbf4b2cb9	-0.79365116
182	0xbfbcceee	-1.475065
183	0xbf838344	-1.0274434
184	0x3f2d7e24	0.677706
185	0x3ff214ce	1.8912599
186	0x3fadcbb9	1.3577796
187	0x3f6e6cfd	0.9313505
188	0x3fac42f1	1.3457929
189	0x3fa30d8f	1.2738513
190	0xbf1ec097	-0.6201262
191	0xbf33d9b0	-0.7025404
192	0xbf4aed82	-0.7926866
193	0xbf197003	-0.5993654
194	0xbe8a2fc8	-0.2698958
195	0x3ec66360	0.38747692
196	0x3e409e15	0.18810304
197	0xbf8c5a49	-1.0965053
198	0xbf4e863c	-0.80673575
199	0x3d322a14	0.04349716
200	0x3e4c9d63	0.19981913
201	0xbdda34f4	-0.10654631
202	0xbd682a3b	-0.0566809
203	0xbe75fe21	-0.24022724
204	0xbe62f663	-0.22164302
205	0xbd95d6dc	-0.07316372
206	0xbe446ea7	-0.19182836
207	0xbe374331	-0.17896725
208	0xbe782e4d	-0.24236412
209	0xbe16536c	-0.1468026
210	0xbcfaab59	-0.030599283
211	0xbce7dadd	-0.028302604
212	0xbe1bbd12	-0.15208843
213	0xbe0ef651	-0.1396115
214	0xbeb3e0ed	-0.35132542
215	0xbd9766fe	-0.07392691
216	0xbe495def	-0.19664739
217	0xbe8ae7fd	-0.27130118
218	0xbec7bb91	-0.3901029
219	0xbeded4fc	-0.4352187
220	0xbeaedcd0	-0.34152842
221	0xbec7ee1b	-0.39048848
222	0xbe998b40	-0.29989052
223	0xbd35ab1c	-0.044352636
224	0xbdff61ee	-0.124698505
225	0xbd4de49e	-0.050266854
226	0xbf0e62fb	-0.5561978
227	0xbea689ba	-0.32526952
228	0xbe3d132d	-0.18464346
229	0x3d9f4013	0.07775893
230	0xbf0a53a8	-0.540339
231	0xbf5339e4	-0.8251021
232	0xbd649eeb	-0.05581562
233	0x3ef47850	0.4774804
234	0x3ed18154	0.40918982
235	0xbe8ac314	-0.27101958
236	0xbea0e340	-0.31423378
237	0xbeb9776b	-0.3622392
238	0x3e87c291	0.2651563
239	0xbe938d35	-0.2881867
240	0xbe1e4aa2	-0.15458158
241	0xbeb908bf	-0.36139485
242	0xbea05de7	-0.31321642
243	0xbf25fa4f	-0.64835066
244	0xbf20d72c	-0.62828326
245	0xbef9adb9	-0.48765352
246	0x3d489747	0.048972394
247	0xbee597fc	-0.44842517
248	0xbf244331	-0.64165026
249	0xbdd6f1c6	-0.104953334
250	0xbf8a5274	-1.0806413
251	0xbf0664d2	-0.5249759
252	0xbe846f23	-0.2586604
253	0xbeb05c0b	-0.34445223
254	0xbf235f42	-0.63817227
255	0xbe4fd075	-0.20294364

conv2.bias f4 [16]
0	0xc0e60904	-7.1886005
1	0xbfe3fc51	-1.7811376
2	0xbfbc4f5b	-1.4711717
3	0xbf14b6fd	-0.5809172
4	0xbea5b622	-0.3236552
5	0xc05c6f67	-3.4442995
6	0xbead0ddc	-0.33799636
7	0xbf0de284	-0.5542376
8	0xbfa94f93	-1.3227409
9	0xbea26972	-0.31721073
10	0xbd8db2e2	-0.06918885
11	0xbfdc9ccb	-1.723535
12	0xbf013677	-0.5047373
13	0xc0d80185	-6.7501855
14	0x3fc9d1ae	1.5767114
15	0x3f0861b7	0.532741

fc1.weight f4 [120, 400]
0	0x3ed361a0	0.4128542
1	0x3dce814a	0.10083254
2	0xbe26b7a3	-0.1628099
3	0xbdddab18	-0.10823649
4	0xbe3dbf7f	-0.18530081
5	0xbdac6f15	-0.08419625
6	0xbe1812c0	-0.14850903
7	0xbea851c9	-0.32874897
8	0xbedb8559	-0.42875174
9	0xbeab9b84	-0.33517087
10	0xbe1d8759	-0.15383662
11	0xbdb8f8c4	-0.09031823
12	0xbddc7f91	-0.10766519
13	0xbe4690ea	-0.19391218
14	0xbe69f730	-0.22848201
15	0xbcaadd47	-0.020857466
16	0xbe01f00b	-0.12689225
17	0xbe3d5272	-0.18488482
18	0xbc108f2a	-0.0088231955
19	0xbd568f71	-0.05238289
20	0x3e2926d7	0.16518722
21	0xbe96d08a	-0.29455978
22	0x3d3b42c5	0.045717973
23	0x3e6a2acb	0.22867887
24	0x3e296726	0.16543254
25	0xbe288fdf	-0.16461132
26	0xbe6f7e0d	-0.23387928
27	0xbd8cab27	-0.06868582
28	0xbe21a3ef	-0.15785192
29	0xbe1283c5	-0.14308079
30	0x3cbcf5c8	0.023066416
31	0xbdcfd62a	-0.101482704
32	0xbeb7160b	-0.35759005
33	0xbe0ee971	-0.13956238
34	0x3db9bf78	0.09069723
35	0xbcab0d2c	-0.020880304
36	0xbe17ada0	-0.14812326
37	0x3e2bb16d	0.16766901
38	0x3e75a2e9	0.23987927
39	0x3c58832c	0.013214868
40	0x3cc6aa11	0.024251016
41	0xbd7d3946	-0.0618222
42	0xbda9f5d4	-0.08298841
43	0xbd5b207a	-0.05349777
44	0x3c154ebd	0.009113011
45	0xbe2cf812	-0.16891506
46	0xbe625101	-0.22101213
47	0xbe7fb01f	-0.24969529
48	0x3e188a8d	0.14896603
49	0xbe1b1cb5	-0.1514767
50	0xbd37535d	-0.044757236
51	0xbdc236df	-0.09483122
52	0xbd075b02	-0.033045776
53	0xbdd27b82	-0.102774635
54	0xbe01fd67	-0.12694322
55	0xbdf9254c	-0.12165317
56	0xbdf94cee	-0.12172876
57	0xbe47d33d	-0.19514175
58	0x3cddd9f1	0.027081462
59	0xbe1c51d1	-0.15265585
60	0xbe4daee6	-0.2008625
61	0xbda4f7cf	-0.08055078
62	0xbd5f8b2e	-0.05457609
63	0x3d6a715b	0.05723701
64	0xbdcabea1	-0.09899641
65	0x3c70eff6	0.014705649
66	0x3c019f4e	0.007911516
67	0xbe3a2b48	-0.18180573
68	0xbd8de5d9	-0.069286056
69	0xbd8fe9d9	-0.07027025
70	0xbdc210a3	-0.094758295
71	0xbe146c5e	-0.14494464
72	0xbe6f7fd7	-0.23388611
73	0xbe5bb307	-0.21455012
74	0xbe02df45	-0.12780483
75	0x3e8211b7	0.2540414
76	0xbb460b3b	-0.0030219096
77	0x3ae7226c	0.001763416
78	0x3dd92973	0.10603609
79	0x3d880b10	0.06642735
80	0x3cbe2a17	0.02321343
81	0x3e277898	0.16354597
82	0x3dca2e83	0.09872153
83	0xba33462b	-0.0006838764
84	0xbd937d8a	-0.07201679
85	0x3aa44d8c	0.0012535318
86	0x3d302ccd	0.043011475
87	0xbc3a0e50	-0.011355951
88	0xbe2f06ca	-0.17092434
89	0x3c01c74b	0.00792105
90	0xbb757cdf	-0.0037458462
91	0x3dd36dfc	0.10323712
92	0x3e954157	0.29151413
93	0x3e858a98	0.260823
94	0x3ec4cbfa	0.38436872
95	0x3dc968a7	0.09834414
96	0x3ea64eda	0.32482034
97	0x3e051979	0.12997998
98	0x3e707ce5	0.23485143
99	0x3eedbe59	0.46434286
100	0x3d869054	0.06570497
101	0x3caf2a64	0.021382518
102	0x3d52077a	0.05127666
103	0xbe21df5b	-0.1580786
104	0x3d7a3c03	0.061092388
105	0x3ce56412	0.028001819
106	0xbd29c684	-0.041449085
107	0x3e491773	0.19637851
108	0x3d4f566f	0.05061954
109	0x3e4bbab5	0.19895442
110	0xbbe95ce5	-0.0071216696
111	0xbcc76f0e	-0.024344947
112	0x3dd6f627	0.104961686
113	0x3db5b45a	0.0887229
114	0x3e5fa65c	0.21840805
115	0xbcb9162c	-0.02259358
116	0xbd8a90ae	-0.06765877
117	0xbdfe21ec	-0.12408814
118	0xbe403eac	-0.18773907
119	0xbe110355	-0.14161427
120	0x3c26a21b	0.010170485
121	0xbcf77f7d	-0.030212158
122	0x3bc25245	0.0059302174
123	0xbc38190d	-0.011236441
124	0xbe1ddd27	-0.15416394
125	0xbd5c80df	-0.05383384
126	0xbd2c2e92	-0.0420366
127	0xbd9da7e8	-0.07698041
128	0xbe11bbdc	-0.14231819
129	0x3d8d090d	0.06886492
130	0x3de54077	0.11193936
131	0xbe025981	-0.12729456
132	0xbd1dfb45	-0.038569707
133	0xbe14f69d	-0.145472
134	0xbdf71ce7	-0.120660596
135	0xbdeaa661	-0.114575155
136	0xbe04ada3	-0.12956862
137	0xbe23bacb	-0.15989225
138	0x3e469e9f	0.19396447
139	0x3d83a584	0.06428054
140	0xbe0dec3d	-0.13859649
141	0xba9f5271	-0.0012155307
142	0xbdb28771	-0.0871724
143	0xbe7fa890	-0.24966645
144	0xbdfb0519	-0.12256832
145	0x3e458362	0.192884
146	0x3db737fe	0.089462265
147	0x3f16780e	0.5877694
148	0x3d6593e7	0.056049254
149	0xbdfe9f43	-0.124327205
150	0xbb7a5b85	-0.0038201523
151	0x3b7bbffd	0.0038413994
152	0xbc993027	-0.018699719
153	0xbd7f06d0	-0.062262356
154	0xbd2a3fc3	-0.041564714
155	0x3d28a4a8	0.041172653
156	0xbcae9029	-0.021308975
157	0x3d1fc46f	0.039005693
158	0xbb5b478f	-0.00334594
159	0xbaa0cccc	-0.0012268065
160	0xbc1f1043	-0.009708467
161	0xbc0b6050	-0.008506849
162	0xbd51b74b	-0.051200192
163	0xbc81f17c	-0.015862219
164	0x3d77ed5c	0.060529098
165	0x3d1a9081	0.037735466
166	0x3c385d8f	0.011252775
167	0x3d89334b	0.066992365
168	0x3c30370a	0.01075531
169	0x3c86131e	0.016366538
170	0x3d2aae1c	0.04166995
171	0x3dd822c4	0.10553506
172	0x3d8cbec5	0.06872324
173	0x3e02fe61	0.1279235
174	0x3da62d2e	0.08114086
175	0xbca9eb7b	-0.020742169
176	0xbe82c6b1	-0.25542215
177	0xbe18dde7	-0.14928399
178	0xbc4a91f4	-0.0123638995
179	0x3e38ac73	0.18034534
180	0xbeb9b18f	-0.3626828
181	0xbd777306	-0.06041243
182	0x3c488b4f	0.012240245
183	0xbd0cd62b	-0.034383934
184	0xbd28de30	-0.04122752
185	0x3da0f50b	0.07859238
186	0xbe20914e	-0.1568043
187	0xba0c28d1	-0.0005346658
188	0xbe282420	-0.1642003
189	0xbe9a113d	-0.30091277
190	0xbe0b4e93	-0.13604192
191	0xbe6cdc96	-0.23131022
192	0xbee1dbe6	-0.44113082
193	0xbe893f4a	-0.26806098
194	0xbe4e3cdf	-0.20140408
195	0xbe13a2d9	-0.1441759
196	0xbea653a5	-0.3248569
197	0xbebd6c87	-0.36996862
198	0xbe151b4b	-0.14561193
199	0xbe41ef56	-0.18938956
200	0x3deaf8fa	0.1147327
201	0x3daa6e16	0.083217785
202	0x3d4f3a12	0.05059249
203	0x3d5544af	0.052067455
204	0x3dc0f6e5	0.094220914
205	0x3e1c77f8	0.1528014
206	0x3b71b87a	0.0036883638
207	0x3d40d122	0.047074445
208	0xbc1f79ef	-0.009733661
209	0x3d10cadf	0.035349723
210	0xbd079063	-0.033096682
211	0xbdad3170	-0.08456695
212	0x3bdf49cd	0.0068142177
213	0xbd86cf76	-0.06582539
214	0x3bc71b9c	0.0060762893
215	0xbe08dece	-0.13366243
216	0xbe07a281	-0.13245584
217	0xbdddb595	-0.1082565
218	0xbd27c062	-0.040954955
219	0xbe000761	-0.12502815
220	0xbdc855cd	-0.0978199
221	0xbd35b20d	-0.044359256
222	0xbd894507	-0.06702619
223	0xbd83655e	-0.06415819
224	0xbd23c8df	-0.039986487
225	0xbcca6f21	-0.024711194
226	0xbcac1b04	-0.021008976
227	0xbc68b928	-0.014204301
228	0xbcd23cbe	-0.02566373
229	0xbd106940	-0.035256624
230	0xbcbe5236	-0.02323256
231	0x3d0e3be9	0.034725104
232	0xbceb3e02	-0.028716091
233	0x3c9c0847	0.019046916
234	0xbd396267	-0.04525986
235	0x3d1f4080	0.03887987
236	0x3cf72229	0.030167656
237	0xbd55b977	-0.052178826
238	0xbc13f838	-0.009031348
239	0xbda9472f	-0.0826553
240	0x3d83fbd6	0.06444518
241	0x3ca583b3	0.0202044
242	0xbb4ea23f	-0.0031529812
243	0xbbf3dfda	-0.0074424567
244	0xbb81acbb	-0.0039573587
245	0x3dd4605d	0.10369942
246	0x3dfd8c30	0.12380254
247	0x3df93ef3	0.1217021
248	0x3e85b35b	0.261134
249	0x3e3ae2f5	0.1825064
250	0xbe081397	-0.13288723
251	0xbdb08d11	-0.08620656
252	0x3e8ed50b	0.27896914
253	0xbc40bb29	-0.011763372
254	0x3dd08c39	0.10182995
255	0x3cd31975	0.025768975

fc1.bias f4 [120]
0	0xbf3b3aed	-0.7313679
1	0xbe06588c	-0.13119715
2	0xbf5025e4	-0.81307817
3	0xbf31ba13	-0.6942455
4	0xbea42227	-0.32057306
5	0xc0000e58	-2.0008755
6	0xbbd6e047	-0.0065574977
7	0xbfb501d6	-1.4141185
8	0xbf5aec31	-0.8551665
9	0xc0062350	-2.0959053
10	0xbe8978f6	-0.26850098
11	0xbe005028	-0.12530577
12	0x3eaf0c04	0.34188855
13	0xbe5d1585	-0.2159024
14	0xbe0dbc9f	-0.13841484
15	0xbe84dc8b	-0.2594951
16	0xbfd86a13	-1.6907371
17	0xbd75e63a	-0.060034014
18	0xbfb2870d	-1.3947464
19	0xbf3ce3f7	-0.73785347
20	0xbf9e6895	-1.2375666
21	0xbf455c5f	-0.7709407
22	0xbf46f577	-0.777183
23	0xbea0df9f	-0.3142061
24	0xbf1ca2d9	-0.61185986
25	0xbf369707	-0.713242
26	0xbb7c91a4	-0.0038538957
27	0xbfa7ed7b	-1.3119348
28	0xbfd375d1	-1.652033
29	0xbe9819b8	-0.29707122
30	0xbfceaad8	-1.6145887
31	0x3e0ed914	0.13949996
32	0xbfc384f7	-1.5274953
33	0xbfeceea5	-1.8510329
34	0xbea45d6b	-0.32102522
35	0xbf2e7da1	-0.68160444
36	0xbf3726ad	-0.7154339
37	0x3e7f15f6	0.24910721
38	0xc018e55b	-2.3889987
39	0x3ce61b8c	0.028089307
40	0xbe676326	-0.22596416
41	0xbfb72722	-1.4308817
42	0xbf8f565c	-1.119823
43	0xbf861237	-1.0474309
44	0xbfe9e06e	-1.8271616
45	0xc02e1697	-2.7201288
46	0xbc5217fd	-0.012823102
47	0xbdb77e20	-0.08959603
48	0xbff927d3	-1.9465278
49	0xbe1ffc5d	-0.15623613
50	0xbf369051	-0.7131396
51	0xbe583e44	-0.21117502
52	0xbfb85652	-1.4401343
53	0xc01fa330	-2.4943352
54	0xbf15b82e	-0.5848416
55	0x3e93ea63	0.2888976
56	0xbd603b1f	-0.054743882
57	0xbfda7d52	-1.7069495
58	0xbe022106	-0.1270791
59	0xbe979590	-0.29606295
60	0xbe15f2f8	-0.14643466
61	0xbec67e61	-0.38768294
62	0xbf878f62	-1.0590632
63	0xbf8d7aa9	-1.1053058
64	0x3e8ae645	0.27128807
65	0xbd4f99a3	-0.05068363
66	0xbfc78424	-1.5587201
67	0xbd57f5eb	-0.05272476
68	0xc0304177	-2.7539957
69	0xc003a915	-2.057195
70	0xbf13294e	-0.574849
71	0xbffbf412	-1.9683859
72	0xbf2a9779	-0.6663738
73	0xbf05daba	-0.52286875
74	0xbfc19157	-1.5122479
75	0xbe3a6f05	-0.18206413
76	0xbf345fbe	-0.7045859
77	0xbeab5aa2	-0.33467585
78	0xbf3939d6	-0.72353876
79	0xbdba4405	-0.09095005
80	0xbf9136f1	-1.1344892
81	0xbfe99b10	-1.8250446
82	0xbe224c76	-0.1584948
83	0xbe1932ff	-0.1496086
84	0xbf6c1b84	-0.92229486
85	0xbf8fbb56	-1.1229045
86	0xbf9753f1	-1.1822492
87	0xc019a237	-2.4005258
88	0x3ec2319a	0.37928468
89	0xc002dd41	-2.0447543
90	0xbef5d512	-0.48014122
91	0xbf1aced2	-0.6047183
92	0xba893cfc	-0.0010470445
93	0xbfbc9a3c	-1.4734569
94	0x3e26043b	0.16212551
95	0xbf03b5aa	-0.5144907
96	0xbe18fe09	-0.14940657
97	0x3e92f6cf	0.28703925
98	0xbea33298	-0.31874537
99	0xbfd30240	-1.6485062
100	0xbec9b804	-0.39398205
101	0xbde4772e	-0.11155544
102	0xbfb61876	-1.4226215
103	0xc03a36ad	-2.9095871
104	0xbdcae43b	-0.09906813
105	0xbf05eebb	-0.523174
106	0xbfec30e1	-1.8452417
107	0xbfd95907	-1.6980294
108	0x3e02607d	0.1273212
109	0xbee293eb	-0.44253477
110	0xbee65526	-0.44986838
111	0xbfa86539	-1.3155891
112	0xbe237b18	-0.15964925
113	0xbf77bb96	-0.9677061
114	0xbfa5b041	-1.2944413
115	0xbe06ca63	-0.13163142
116	0xbccdc5db	-0.025118759
117	0xbf75f7ad	-0.9608105
118	0xbdeb3491	-0.114846356
119	0x3d49cad7	0.04926571

fc2.weight f4 [84, 120]
0	0x3df5fa01	0.12010575
1	0xbf3d7128	-0.7400079
2	0xbe981a25	-0.29707447
3	0xbe15d228	-0.1463095
4	0x3d1af8c1	0.037834886
5	0xbdb3fef7	-0.08788865
6	0x3d0632ff	0.032763477
7	0xbe20cc0f	-0.15702842
8	0xc0190771	-2.3910792
9	0xbe853f07	-0.2602465
10	0xbee85d44	-0.45383656
11	0xbe5d0fee	-0.21588108
12	0xbe0865ea	-0.13320127
13	0xc077422f	-3.8634145
14	0xc0acdc9e	-5.401931
15	0xbd696633	-0.05698223
16	0xbe2c0e34	-0.16802293
17	0xbdee00ed	-0.1162127
18	0xbf034811	-0.5128184
19	0xbf89637d	-1.0733486
20	0xbdee2cad	-0.11629615
21	0xbd7b6c6f	-0.061382707
22	0xbfc1b72c	-1.5134025
23	0xbe47e704	-0.19521719
24	0xbe8126e3	-0.2522498
25	0x3d04ec5e	0.03245198
26	0xbdfb1c91	-0.12261308
27	0x3d60b3e6	0.054859065
28	0xbf5988c8	-0.84974337
29	0x3e2e0a27	0.1699606
30	0xbe90ed91	-0.2830625
31	0x3df1e4f6	0.11811249
32	0xbf1dc4d6	-0.6162847
33	0xbd7badce	-0.06144505
34	0xbd207c19	-0.03918085
35	0xbed97789	-0.4247401
36	0x3da8e627	0.08247023
37	0xbe6bd760	-0.23031378
38	0xbe9fafab	-0.31188712
39	0xbd4b5873	-0.0496449
40	0xbd3bc766	-0.045844458
41	0x3cb386e1	0.021914901
42	0xbec304c2	-0.38089567
43	0xc05611f9	-3.344847
44	0xbfc73465	-1.5562865
45	0xbf0d0aa2	-0.5509435
46	0xbdcde3ae	-0.10053192
47	0xbebad618	-0.36491466
48	0xbd7aa05a	-0.06118808
49	0xbfea7269	-1.8316165
50	0x3e85df71	0.26147035
51	0xbbb45842	-0.005503685
52	0xbecfb2b7	-0.40566036
53	0xbeb8926b	-0.36049208
54	0xbeb6818a	-0.35645705
55	0xbe61297c	-0.21988481
56	0xbe65b68a	-0.22432914
57	0xbd7da89f	-0.061928388
58	0xbc0208d5	-0.007936676
59	0xbe4b0578	-0.19826305
60	0xbe9f85ce	-0.31156772
61	0xbc22beb2	-0.009933161
62	0xbf8dc0db	-1.107448
63	0xc0942325	-4.62929
64	0x3dadd418	0.08487719
65	0xbf739f5e	-0.9516505
66	0xbd2f42b3	-0.04278822
67	0xc09a45c4	-4.8210163
68	0xbe61feb4	-0.22069818
69	0xbe98f7e1	-0.29876617
70	0xbcac853a	-0.021059621
71	0xbeb783bb	-0.3584269
72	0xbe3ea404	-0.18617254
73	0xbe134cf5	-0.14384826
74	0xbed5720f	-0.41688582
75	0xbe962ed7	-0.2933261
76	0xbe613d91	-0.21996142
77	0xbd3eaf0c	-0.046553656
78	0xc0a0a979	-5.0206876
79	0xc011ff02	-2.2811894
80	0xc058ec50	-3.3894234
81	0xbeedfe1f	-0.46482942
82	0x3db41cea	0.087945774
83	0xbd9acc1a	-0.075584605
84	0xbed1446f	-0.40872523
85	0xbe16c03c	-0.14721769
86	0xbed9024e	-0.4238457
87	0xbe3de877	-0.1854571
88	0xbdffb825	-0.12486295
89	0xbe842866	-0.25812072
90	0x3c9e2adb	0.019307544
91	0xbe2edeb6	-0.17077145
92	0x3d337f63	0.043822657
93	0xbf3ae43a	-0.73004496
94	0xbc9bac98	-0.019003198
95	0xc05486d6	-3.3207297
96	0xbd040423	-0.032230508
97	0xbe187761	-0.1488929
98	0x3ba9654e	0.005169547
99	0xbff6edb2	-1.9291289
100	0xbb288e37	-0.0025719532
101	0x3d89d6d9	0.06730432
102	0xbeb93270	-0.36171293
103	0xbf311389	-0.69170433
104	0xbd95d45b	-0.07315894
105	0xbdc7371c	-0.09727308
106	0xc005fda2	-2.0936055
107	0xbe831919	-0.25605085
108	0xbe4fb6f0	-0.20284629
109	0x3e1de468	0.15419161
110	0xbe2e7420	-0.17036486
111	0xbc0b743c	-0.008511599
112	0x3d90dcc4	0.07073358
113	0xbdf4f6f1	-0.11961163
114	0xbe6f0fc1	-0.23345853
115	0xbfdd1bba	-1.7274086
116	0x3c5e91f2	0.013584601
117	0xc0b6f7ff	-5.717773
118	0xbd7b761b	-0.06139193
119	0x3e785d14	0.24254256
120	0xbe97daf5	-0.29659238
121	0xbe7c4819	-0.24636878
122	0xbe08de1a	-0.13365975
123	0xbe20af17	-0.15691791
124	0xbe2ffe5a	-0.17186871
125	0x3e9aab1b	0.30208668
126	0x3db35574	0.08756533
127	0xbe0f05bf	-0.13967036
128	0xbe83f7cb	-0.2577499
129	0xbe697ee2	-0.22802308
130	0x3d24304f	0.040085133
131	0xbe9ca4f3	-0.30594596
132	0xbe6787b8	-0.22610366
133	0xbe41e046	-0.1893321
134	0xbde4e3db	-0.111762725
135	0xbe53c76e	-0.20681545
136	0xbeb90b4b	-0.36141428
137	0xbd7a5ebf	-0.061125513
138	0xbea073a0	-0.31338215
139	0xbe10c5dc	-0.14137977
140	0xbec46664	-0.38359368
141	0xbe68bd15	-0.22728379
142	0xbe78de93	-0.24303655
143	0x3d88ad65	0.066736974
144	0x3e10f317	0.14155231
145	0xbe51ec9a	-0.20500413
146	0x3bab2854	0.0052233133
147	0xbed972d9	-0.42470434
148	0xbe4d89da	-0.20072117
149	0x3bb3157c	0.0054652076
150	0xbe52d2f4	-0.20588285
151	0x3cc913c2	0.024545554
152	0xbe6dbc73	-0.23216419
153	0xbe4c93a3	-0.19978194
154	0xbe0dfea5	-0.1386667
155	0xbe970d83	-0.29502496
156	0xbe7a0dd8	-0.24419343
157	0xbe1dcafa	-0.1540946
158	0xbe91e8d5	-0.2849795
159	0xbd0faf9d	-0.035079587
160	0x3dc895ca	0.09794195
161	0xbe4e0d6e	-0.2012231
162	0xbdf4ea04	-0.119586974
163	0xbe78d3d8	-0.24299562
164	0xbd08118b	-0.033219855
165	0xbdd8c8cd	-0.10585175
166	0x3db366f4	0.08759871
167	0xbeb661cf	-0.35621497
168	0xbe65e02a	-0.22448793
169	0xbe41395f	-0.18869542
170	0xbe357a9c	-0.17722553
171	0x3d80dfc1	0.06292678
172	0xbe33c7b0	-0.17556643
173	0xbea9da44	-0.33174336
174	0xbe147607	-0.14498149
175	0xbec4425a	-0.38331872
176	0xbe77b372	-0.24189547
177	0xbe0c053d	-0.13673873
178	0xbd0f158e	-0.034932666
179	0xbd73f953	-0.059563946
180	0xbe0bde41	-0.13659002
181	0xbe2df141	-0.16986562
182	0xbe50cef1	-0.20391442
183	0x3d8b15f8	0.067912996
184	0xbe18a683	-0.14907269
185	0xbe12baf0	-0.14329123
186	0x3c997419	0.018732117
187	0xbea18b9d	-0.3155183
188	0xbe8815d7	-0.26579162
189	0xbd8ef1be	-0.069797024
190	0xbe23b7b5	-0.15988047
191	0x3c850e90	0.016242296
192	0xbeb47f15	-0.35253206
193	0xbda87645	-0.08225683
194	0xbef304c4	-0.47464573
195	0xbe7868eb	-0.24258773
196	0xbe7aabb0	-0.24479556
197	0xbde36276	-0.11102764
198	0xbe956963	-0.29181966
199	0xbdef818b	-0.1169463
200	0xbf03d6ab	-0.5149943
201	0xbea15332	-0.31508785
202	0xbe2a7f5b	-0.16650145
203	0xbe38e521	-0.18056156
204	0xbd0e76d8	-0.034781307
205	0xbe537f41	-0.20654012
206	0xbf09c283	-0.53812426
207	0xbe437639	-0.19088067
208	0xbef120f3	-0.4709545
209	0xbe924d9b	-0.28574833
210	0xbe34c1ac	-0.17652005
211	0xbe441114	-0.1914714
212	0xbe1b9a14	-0.15195495
213	0xbe60ed85	-0.21965607
214	0xbe3952b9	-0.18097962
215	0xbe097a61	-0.1342559
216	0xbdaf1ed0	-0.08550799
217	0xbe3aad0d	-0.18230076
218	0xbe0170df	-0.12640713
219	0xbe929a7e	-0.28633493
220	0xbdbbd0c7	-0.091706805
221	0xbe5cecc0	-0.21574688
222	0xbefa29a0	-0.48859882
223	0xbde9e2d2	-0.11420216
224	0xbdfbe8b7	-0.12300246
225	0xbe0c7d4d	-0.13719673
226	0xbf10b304	-0.56523156
227	0xbe576ac6	-0.21036825
228	0xbca6b326	-0.020349097
229	0xbe03b953	-0.12863664
230	0xbe8a1f9c	-0.2697724
231	0xbd04bd87	-0.03240731
232	0xbd0f0a6c	-0.03492205
233	0x3b77c68f	0.003780756
234	0xbee31b7b	-0.44356903
235	0xbe13fd93	-0.144522
236	0xbe0c246c	-0.13685769
237	0xbdfc0316	-0.12305276
238	0xbd95efd7	-0.073211364
239	0xbe74d8b5	-0.23910792
240	0xbea6bead	-0.3256735
241	0xbeda463f	-0.4263172
242	0xbf0f4beb	-0.55975217
243	0xbeb311e4	-0.34974587
244	0xbeb7ed97	-0.35923454
245	0x3df242b5	0.118291296
246	0xbcad8c79	-0.021185147
247	0xbe48c427	-0.19606076
248	0xbea9f613	-0.33195552
249	0xbea88810	-0.32916307
250	0xbe24a858	-0.16079843
251	0xbddca577	-0.107737474
252	0xbed482a5	-0.41505924
253	0xbeb8e578	-0.3611257
254	0x3e88256d	0.26591054
255	0xbe950a4d	-0.2910942

fc2.bias f4 [84]
0	0xbe471c4d	-0.1944439
1	0x3e7309f3	0.23734264
2	0x3eacafdc	0.3372792
3	0xbe79efb9	-0.24407853
4	0xbe87d912	-0.265328
5	0xbe7acb38	-0.24491584
6	0xbe01ae41	-0.12664129
7	0x3c24b6f4	0.010053385
8	0xbe54cae9	-0.20780529
9	0x3e9da482	0.30789572
10	0xbeff4589	-0.4985774
11	0x3f37f8cc	0.7186401
12	0xbe7ecedb	-0.24883597
13	0xbe174d7e	-0.14775655
14	0xbe7a1f91	-0.24426104
15	0x3f48cadf	0.78434557
16	0xbe5bc4af	-0.21461748
17	0xbf105932	-0.563861
18	0x3e612b95	0.21989281
19	0x3f4ac61e	0.7920855
20	0x3ed93904	0.42426312
21	0xbe46191e	-0.19345519
22	0xbe8b8c74	-0.27255595
23	0xbf1871d9	-0.5954872
24	0xbeca3a82	-0.39497763
25	0xbf3a56de	-0.727888
26	0xbe9074d8	-0.28214145
27	0xbf1c9c19	-0.61175686
28	0xbe91569d	-0.28386393
29	0xbe2be875	-0.16787894
30	0xbe615637	-0.22005545
31	0xbec1c0a6	-0.37842292
32	0xbef508b8	-0.47858214
33	0xbefe3ce9	-0.49655846
34	0x3f1bd9ce	0.6087922
35	0xbe91a783	-0.28448114
36	0xbebb6740	-0.3660221
37	0xbd1e3ef5	-0.03863426
38	0x3e70ce48	0.2351619
39	0xbea6a911	-0.32550862
40	0x3f2c336d	0.6726597
41	0xbeca26a7	-0.39482614
42	0xbe9d7a10	-0.3075719
43	0x3ef5da82	0.4801827
44	0x3ee49b82	0.44649893
45	0x3f4129e9	0.75454575
46	0xbda7f1f2	-0.08200444
47	0xbdd39735	-0.10331575
48	0xbe28920f	-0.16461967
49	0xbe9c7ef5	-0.3056561
50	0xbeb66661	-0.35624984
51	0xbdc93b2e	-0.09825741
52	0x3e86c579	0.26322535
53	0xbf002b06	-0.5006565
54	0xbe535b9c	-0.20640415
55	0xbeb36934	-0.350412
56	0x3e5227b0	0.20522952
57	0xbeb94b8a	-0.36190444
58	0x3e69fcd1	0.22850348
59	0xbed3d72a	-0.41375095
60	0xbe1a61f5	-0.1507643
61	0xbefcb5ec	-0.49357545
62	0xbea48d3e	-0.3213901
63	0xbed6c43d	-0.41946593
64	0xbef29fec	-0.47387636
65	0xbe636964	-0.22208172
66	0x3e9fda51	0.3122125
67	0xbe65940c	-0.22419757
68	0xbec165a2	-0.37772852
69	0x3f0293c2	0.5100671
70	0x3f6bb6bb	0.920757
71	0xbeb737ad	-0.35784665
72	0x3d48f01a	0.049057104
73	0xbe89e657	-0.26933548
74	0xbe342385	-0.17591675
75	0xbe800026	-0.25000113
76	0xbed06d69	-0.40708473
77	0xbea491f2	-0.32142597
78	0xbe6be525	-0.2303663
79	0xbecd6e71	-0.40123323
80	0xbf41a7a4	-0.75646424
81	0x3f4256c9	0.75913674
82	0xbef1460d	-0.47123757
83	0x3ed14276	0.40871018

fc3.weight f4 [10, 84]
0	0x3d8a25fc	0.06745526
1	0x3ea67793	0.32513103
2	0x3ed49eeb	0.41527495
3	0x3e3d3b6e	0.18479702
4	0xbddbeb24	-0.10738209
5	0xbeb197a9	-0.3468602
6	0xbd45fc5c	-0.04833637
7	0x3d8b1f35	0.06793062
8	0xbe4b9286	-0.19880113
9	0x3eb52b3a	0.35384542
10	0x3e9ec61d	0.31010523
11	0xbec21031	-0.37902978
12	0xbe6ae819	-0.229401
13	0xbe1b0c7c	-0.15141481
14	0xbe638476	-0.22218499
15	0x3ec1560d	0.37760964
16	0xbe5b4d92	-0.2141631
17	0x3df0d67f	0.11759662
18	0xbd9bb334	-0.0760254
19	0xbf013d86	-0.504845
20	0x3ece2c94	0.40268385
21	0xbe4111c5	-0.18854435
22	0x3c31858d	0.010835064
23	0xbde0b873	-0.10972681
24	0xbdc61eed	-0.096738674
25	0x3f16ed61	0.5895596
26	0xbd860044	-0.065430194
27	0x3e4c9449	0.19978441
28	0xbd7c25d2	-0.061559506
29	0x3e740027	0.23828183
30	0x3d9db753	0.07700982
31	0x3ea468e1	0.32111266
32	0xc00f3eb1	-2.2382014
33	0x3ec2a946	0.3801977
34	0xbf822476	-1.0167377
35	0x3d379ddd	0.044828285
36	0x3e89171f	0.26775452
37	0x3e29188f	0.16513275
38	0x3d618331	0.055056754
39	0x3ef918de	0.48651785
40	0x3f0782b6	0.52933824
41	0x3e824e2b	0.25450262
42	0xbd9f9cac	-0.07793555
43	0x3ebd1a7d	0.3693427
44	0x3ef1b7bb	0.47210488
45	0x3f0ee316	0.55815256
46	0xbf820395	-1.0157343
47	0xbb0414af	-0.002015393
48	0xbd9483d4	-0.07251707
49	0xbe08c6fd	-0.13357158
50	0x3e1eaa95	0.1549476
51	0x3e5aef36	0.21380314
52	0x3e08101f	0.132874
53	0xbed8f884	-0.42377102
54	0x3f72c6ae	0.9483441
55	0x3e679426	0.22615108
56	0x3e275bed	0.1634366
57	0xbe6bbcae	-0.23021194
58	0x3ea7f22e	0.32801956
59	0xbef9bc9d	-0.48776713
60	0x3d36a778	0.044593304
61	0xbe4379dc	-0.19089454
62	0x3e5f2395	0.21790917
63	0x3eb4a087	0.35278723
64	0xbeded31f	-0.43520448
65	0x3e485b44	0.19566065
66	0x3cd56d00	0.026052952
67	0x3e748c40	0.23881626
68	0x3d92ef16	0.07174508
69	0x3c09beeb	0.008407335
70	0x3e953af8	0.29146552
71	0x3e153caa	0.14573923
72	0x3ec2d780	0.38055038
73	0x3e2fe3c5	0.17176731
74	0xc0d3a8cc	-6.614355
75	0xbe7455b8	-0.23860824
76	0x3e4fa0d6	0.20276198
77	0x3e182603	0.1485825
78	0x3d3c088f	0.0459066
79	0x3bef1f9e	0.0072974702
80	0xbe97812d	-0.2959074
81	0xbf59a2a2	-0.8501378
82	0x3e817a51	0.25288633
83	0x3f111849	0.5667768
84	0x3ebbc285	0.36671844
85	0x3ecb8510	0.39749956
86	0x3dfdaeaf	0.12386834
87	0x3e737dc1	0.2377844
88	0xbdbe2708	-0.09284788
89	0x3f187ee2	0.5956861
90	0x3d5c351b	0.053761583
91	0xbe1683bb	-0.14698689
92	0x3e2db0d5	0.16961987
93	0x3df103fd	0.11768339
94	0x3dd15c3a	0.10222669
95	0xbeca1400	-0.39468384
96	0xbd20415d	-0.039124835
97	0xbea05f8c	-0.31322896
98	0xbdd7b33c	-0.10532233
99	0x3e3e3c36	0.18577656
100	0x3d3a6f2b	0.045516174
101	0x402b59b7	2.6773508
102	0xbf048a66	-0.5177368
103	0xbf0160b5	-0.5053819
104	0x3e06a97c	0.1315059
105	0x3dcda594	0.10041347
106	0xbd8cc23c	-0.06872985
107	0xbefe1d19	-0.49631575
108	0x3d23cd3c	0.03999065
109	0x3ebeaa46	0.37239283
110	0xbe68cf5d	-0.22735353
111	0x3eb0698d	0.3445553
112	0x3e00b70b	0.12569825
113	0x3e780691	0.24221255
114	0x3d29fc20	0.04150021
115	0x3de3d534	0.1112465
116	0xbf31a60c	-0.6939399
117	0x3e96a8f8	0.29425788
118	0xbed81e09	-0.42210415
119	0x3e3a1701	0.18172838
120	0x3f4c31c7	0.79763454
121	0x403876f2	2.8822598
122	0x3e848567	0.25883028
123	0x3e327ccb	0.17430417
124	0x3f300697	0.68760055
125	0xbd25fe35	-0.040525634
126	0xbf1cb1b5	-0.6120866
127	0xbe5c777f	-0.21529959
128	0xbe4c0281	-0.1992283
129	0xbf44d59b	-0.76888436
130	0xbeaf139f	-0.34194657
131	0x3be4e63c	0.006985454
132	0xbef0c726	-0.47026938
133	0xbe0e867b	-0.13918488
134	0x3eb1c6e2	0.34722048
135	0x3e2e0d61	0.16997291
136	0x3e6df6ee	0.23238727
137	0x3eb84aaf	0.3599448
138	0x3f1e97d6	0.61950433
139	0x3e5fc327	0.21851788
140	0xbef7c2d9	-0.48390844
141	0xbf0cb467	-0.5496277
142	0xbe6bb680	-0.23018837
143	0xbc7cdbc9	-0.01543326
144	0x3e870187	0.26368353
145	0xbe940495	-0.28909746
146	0x3e6b73c1	0.22993375
147	0x3d107f04	0.03527738
148	0xbe3ea51c	-0.18617672
149	0x3eec53a4	0.46157563
150	0xbf3f1a45	-0.7464946
151	0x3d30a701	0.043128017
152	0xbf08c18a	-0.5342032
153	0xbea10033	-0.31445464
154	0xbe327e27	-0.17430936
155	0xbea871af	-0.32899234
156	0x3ef4406d	0.47705403
157	0x3e83d26f	0.25746486
158	0xbdeb25e6	-0.11481838
159	0xbe878538	-0.26468825
160	0x3eddb9de	0.43305868
161	0x3d9dbc62	0.07701947
162	0x3e899f32	0.2687927
163	0x3f163449	0.5867353
164	0xc1316196	-11.086325
165	0xbf7be501	-0.9839631
166	0x3f407fc4	0.75194955
167	0xbe853224	-0.26014817
168	0xbdb13426	-0.08652525
169	0xbe740274	-0.23829061
170	0x3e492c22	0.19645742
171	0xbe57679f	-0.21035622
172	0x3e121b56	0.1426824
173	0xbbe1d9dc	-0.006892426
174	0x3ddbbd96	0.1072952
175	0x3e897bb7	0.268522
176	0xbc2e436f	-0.010636195
177	0x3d987825	0.07444791
178	0xbd581d62	-0.052762397
179	0x3e357f97	0.17724453
180	0x3e7ea762	0.24868539
181	0xbdc407cc	-0.095718
182	0x3dff389e	0.12461971
183	0xbf061f3c	-0.5239141
184	0xbd238caf	-0.03992909
185	0xbe818cf9	-0.25302866
186	0x3f037014	0.5134289
187	0x3e476890	0.19473481
188	0xbec170b7	-0.37781307
189	0x3d5923af	0.053012546
190	0xbdf9bb2c	-0.12193903
191	0x3de63552	0.11240639
192	0xbe3d431a	-0.18482628
193	0xbddaa3da	-0.106757835
194	0x3e4837c9	0.1955253
195	0xbc79862b	-0.015229742
196	0x3d81465d	0.06312249
197	0x3c508e34	0.012729216
198	0xbdb2376f	-0.08701979
199	0x3c73c867	0.014879323
200	0x3e1fff13	0.15624647
201	0xbe270a9d	-0.16312642
202	0x3e5d1afd	0.21592326
203	0xbd7ce446	-0.061741136
204	0x3c119143	0.008884731
205	0xbc3026b0	-0.010751411
206	0xbf03fc79	-0.5155712
207	0x3e5ebb42	0.2175112
208	0xbef851b0	-0.48499823
209	0x3e0fef7e	0.14056203
210	0x3e248a77	0.16068445
211	0x3e492dc8	0.1964637
212	0x3e5bdc16	0.21470675
213	0x3ecedf62	0.40404803
214	0x3e0ef94f	0.13962291
215	0xbd81ae55	-0.06332079
216	0x3df23444	0.11826375
217	0x3e0959c7	0.13413154
218	0xbe1c5eb7	-0.15270506
219	0xbeaf6914	-0.34259856
220	0xbe4075b0	-0.18794894
221	0xbe0b1f8a	-0.1358625
222	0x3e10a086	0.14123735
223	0xbd1d9818	-0.038475126
224	0x3d99d16a	0.07510646
225	0x3f04eeea	0.51927054
226	0x3c6942d8	0.014237128
227	0xbe5d4def	-0.2161176
228	0xbe30288c	-0.17202967
229	0x3ec67194	0.38758528
230	0x3de0f2d9	0.109838195
231	0x3ba023e7	0.0048870924
232	0x3e0e3c27	0.13890134
233	0xbe0473b4	-0.12934762
234	0x3e9e998e	0.30976528
235	0xbdc6ac5a	-0.09700842
236	0x3dc5ea9e	0.0966389
237	0xbeb028dd	-0.34406176
238	0x3d759405	0.059955616
239	0x3e15983a	0.14608851
240	0xbbf90278	-0.0075991713
241	0xbd29d6ab	-0.04146449
242	0x40e80ad3	7.2513213
243	0x3e67a49f	0.22621392
244	0x3ce3d7cf	0.027812866
245	0xbdb8d645	-0.09025244
246	0xbdb15054	-0.086578995
247	0xbd9d6c57	-0.0768668
248	0x3d98bcc8	0.07457882
249	0x3f1f43a1	0.6221257
250	0xbe63fba0	-0.22263956
251	0xbe2ef0b5	-0.1708401
252	0x3e0f8e6d	0.14019175
253	0x3c38932e	0.011265559
254	0xbe1f70c4	-0.1557036
255	0xbd19ee14	-0.037580565

fc3.bias f4 [10]
0	0x3f74bc06	0.955994
1	0x3fb4b8ca	1.4118893
2	0xbefac8d5	-0.48981348
3	0xbf29f679	-0.6639171
4	0xbf73dd65	-0.95259696
5	0xbefe76a5	-0.49699894
6	0xbfbc88a8	-1.4729204
7	0xbf24e103	-0.6440584
8	0x3fa6c606	1.3029182
9	0x3f6eadc4	0.93233895
